src/autoencoder_anomaly_detection_model.pth (torch, 6962 bytes, 12 tensors)

encoder.0.weight f4 [10, 13]
000000 07 3d ce 3e 6d 64 f8 be a8 9b ad 3d c3 75 e7 be
       0.40280935 -0.4851412 0.08476955 -0.45207033
000010 cd 4a 86 bd b9 ce ce be 63 05 92 3f 92 97 1c 3d
       -0.06557236 -0.40392092 1.1407894 0.038230486
000020 82 83 79 3e 87 40 08 3f a6 2a 73 3e 38 ab 9e bd
       0.24366572 0.5322346 0.23746738 -0.07747501
000030 96 d9 e6 3b 4d 53 89 3e 21 09 0c 3f c2 c9 35 3e
       0.0070449812 0.26821366 0.5470143 0.17752746
000040 6a 16 11 3f 2b 55 a1 3d a8 39 88 3e b5 a4 5b 3e
       0.56674826 0.078775726 0.26606488 0.2144955
000050 d4 21 68 3d 7f 0a d9 be ca 48 84 3f a9 60 c3 3e
       0.056672886 -0.4239082 1.0334713 0.38159683
000060 70 d7 86 bd 15 2d e4 be f2 4f eb 3e 29 66 8c 3e
       -0.0658406 -0.44565645 0.4595943 0.27421692
000070 63 da 03 3f cc 28 9f 3e db 7f af 3e 39 c3 66 3e
       0.51505107 0.31085813 0.34277233 0.22535409
000080 dd 8b 23 3f c4 a6 ef 3d ba 03 80 be 30 2c 13 bd
       0.6388529 0.1170173 -0.25002843 -0.035930812
000090 42 a7 70 3e 4c 2f 99 3f d7 29 27 bf b2 b3 a0 bd
       0.23501304 1.1967559 -0.6529822 -0.07846774
0000a0 7d ac 31 bf 82 49 ea bd 0d fb 84 3e 0f 48 25 bc
       -0.6940382 -0.11439802 0.25972787 -0.010087981
0000b0 60 a1 91 3d 8c 4d 5c bc 5f 60 4d 40 e9 78 ff be
       0.07110858 -0.013446223 3.209007 -0.49896935
0000c0 04 e8 b0 3c 70 6d 1d bd 9b 8c 82 3d 5a 9a 15 3d
       0.021595009 -0.038434446 0.063744746 0.036524154
0000d0 a4 85 69 3e 22 2f 05 bd ed c7 e9 3d 68 d3 24 3d
       0.22804886 -0.032515652 0.11415086 0.040240675
0000e0 a6 ee e4 ba 79 ab 54 3e 35 dd 19 bf 10 14 c7 bd
       -0.0017466142 0.20768537 -0.6010316 -0.097206235
0000f0 a1 07 ab bd 57 eb 0e be 8b d2 0f be 31 fc 21 bf
       -0.083510645 -0.13956963 -0.1404516 -0.6327544
000100 73 34 ad be d5 7b 72 bc 01 06 72 3f 21 40 49 bd
       -0.33829078 -0.014800032 0.9454041 -0.049133424
000110 8f 19 60 3d 5e 0a af bd ae fc 12 3d 54 e0 c6 be
       0.054711875 -0.08546899 0.035885505 -0.38843024
000120 2c 4e a9 3d 6c 12 dc 3f 03 c5 4b 3e ec 45 fc bb
       0.08266863 1.7193122 0.19899373 -0.007698765
000130 92 53 84 3d 35 83 cd bd 6f 92 9f be c0 98 90 be
       0.06461252 -0.100347914 -0.31166407 -0.2824154
000140 45 9b de be 8b 4d bd be a8 62 58 be 2c c0 90 be
       -0.43477836 -0.36973223 -0.21131384 -0.28271616
000150 e6 7d a9 be f9 90 ab 3d ad 9a 29 3f c8 3b 27 3f
       -0.33103865 0.08377261 0.6625164 0.65325594
000160 aa ff ae 3e b0 2d 3e bd 92 cf c3 be 69 c3 f7 be
       0.3417943 -0.04643029 -0.382443 -0.48391274
000170 bf a7 1c be b7 53 2a be 3e d2 fa bc 0d a9 2b be
       -0.15298365 -0.16633497 -0.03061783 -0.16763707
000180 96 32 25 be 4c 7a 07 3f 8b ba 3f be 22 40 b7 3d
       -0.16132578 0.52920985 -0.18723504 0.08947779
000190 7d 63 22 be 1a f5 c2 be 46 66 4e 3e 87 b1 68 be
       -0.15858264 -0.38077623 0.20156202 -0.22723971
0001a0 1e 3d 31 3e cf 63 62 3e f0 e2 97 3e 3c 74 97 3e
       0.1730847 0.22108386 0.29665327 0.29580867
0001b0 df 75 8b 3e 64 90 38 3e ff e5 08 3f a4 d8 b9 3d
       0.27238366 0.1802383 0.53475946 0.09074524
0001c0 15 69 2f be b2 62 3d be 3c 9a 79 3d 2b 17 a7 bf
       -0.1712993 -0.1849468 0.060938105 -1.3053945
0001d0 b2 b0 22 bf 26 69 ef 3e 04 59 e0 3f 0a 40 7b 3f
       -0.63550866 0.4675991 1.7527165 0.9814459
0001e0 fc ad 0c 3f 46 14 f4 3e db ae 9c 3f a6 c5 d1 bf
       0.5495298 0.47671717 1.2240862 -1.6388443
0001f0 8d a5 b5 be b6 f3 48 bf 04 23 b6 be 49 da 99 3e
       -0.35477868 -0.78496873 -0.3557359 0.3004935
000200 b5 60 88 bd fc 4c 12 3e
       -0.066590704 0.1428718

encoder.0.bias f4 [10]
000000 d0 bf 21 3f 40 7b c2 3d dc cb 6c be 66 4c aa bd
       0.6318331 0.09496164 -0.23124641 -0.08315353
000010 fd 5a a3 3f 8e 22 12 bf a0 19 a3 3f c6 58 84 3f
       1.2762142 -0.57083976 1.2742195 1.0339592
000020 74 91 9d 3f d8 c1 95 bf
       1.2310014 -1.1699781

encoder.2.weight f4 [7, 10]
000000 fc 8c 58 3f ce 18 3d 3e bf ef da 3e 9c 26 0c 3e
       0.84590125 0.18466493 0.42761037 0.13686603
000010 c0 08 56 be da 12 39 3d b4 56 ab be 2c 85 e0 3d
       -0.20901775 0.045183994 -0.33464587 0.109629005
000020 d7 45 d8 3e 56 8c 96 be 41 9e 38 bf 1d 2f 87 3f
       0.42240784 -0.29403943 -0.72116476 1.0561253
000030 63 fd 03 3e c6 56 3e be 64 18 20 3f 5b 1b 33 c0
       0.12889628 -0.18587789 0.6253722 -2.7985446
000040 90 2d 51 be c9 ff 04 bf fb e6 05 bf e0 93 8a 3a
       -0.20427537 -0.519528 -0.52305573 0.0010572635
000050 12 55 ec be 5f 4a 87 be 39 3f 41 40 63 20 c7 3d
       -0.46158653 -0.26423928 3.0194838 0.09722974
000060 da 60 f3 bf f1 e9 55 3e 4e 99 4d bf a3 90 19 3e
       -1.9013932 0.20890023 -0.8031205 0.14996581
000070 06 31 9b c0 14 d4 d5 3c 78 4f 80 3f 0d 46 d4 bf
       -4.8497343 0.026102103 1.0024252 -1.6583878
000080 0b 37 32 bf 5e 82 ab 3d 19 3f 90 3f 0f c9 70 c0
       -0.6961524 0.08374475 1.1269256 -3.7622716
000090 22 29 db 3f 56 82 09 40 71 32 31 bf 88 8e 92 c0
       1.7121928 2.14858 -0.6921759 -4.579899
0000a0 37 36 3c 3e 2d c6 07 bf 4b cc af 3d 57 6d 5d 40
       0.18380056 -0.5303677 0.08583888 3.4597986
0000b0 60 5d 1c 3f 48 8c aa 3e e8 b6 58 3f 1e dd 02 bf
       0.6107998 0.3331015 0.8465409 -0.5111865
0000c0 6c 1b 8a be 16 49 5a 3f 72 ee e3 be 54 7a 1d bd
       -0.26974046 0.8526777 -0.44517857 -0.03844674
0000d0 e7 63 93 3e 68 e8 a7 be 3d 59 3e 3f d5 16 13 be
       0.28787157 -0.327945 0.74354917 -0.14364178
0000e0 7b ad ed 3e 57 ec 8d 3e 35 3e 12 3e 67 78 cf bd
       0.46421418 0.27719375 0.14281543 -0.10130387
0000f0 64 d7 b8 3f d6 b6 1c 40 23 1f 2b bf 00 27 06 bf
       1.4440732 2.4486594 -0.66844386 -0.5240326
000100 27 7e 05 bf 01 8c 99 bf 41 72 11 40 72 91 3c be
       -0.5214562 -1.1995851 2.2725985 -0.18414858
000110 69 67 5f bf 91 b5 26 3e
       -0.87267166 0.162802

encoder.2.bias f4 [7]
000000 e5 b2 57 be d1 f7 6e 3f 98 a1 39 bf e1 88 ca 3e
       -0.21064337 0.9334689 -0.725122 0.39557555
000010 61 74 a5 3e 76 63 1e 3f be e4 00 bf
       0.32315353 0.61870515 -0.5034903

encoder.4.weight f4 [5, 7]
000000 f1 a4 8e be 66 e6 ea c0 6b 8a 00 3f b6 69 b3 bf
       -0.27860215 -7.340625 0.5021121 -1.4016635
000010 77 99 c7 3c 2f 08 a4 bd d6 4c ef c0 1f 1f 09 40
       0.02436517 -0.080093734 -7.4781294 2.1425245
000020 f5 4e 2a bf fe b4 1f bf 82 ed e4 40 0c 0d df c0
       -0.6652673 -0.6238555 7.1539927 -6.9703426
000030 db aa 8a bf ac 2a 58 c0 cc 3a 04 3f ca 89 39 3e
       -1.0833391 -3.3776045 0.51652217 0.18118969
000040 76 f9 18 3f 95 73 7d 3f fa 9d cf 3e 7e 36 21 3e
       0.5975565 0.9900449 0.40550214 0.15743443
000050 57 56 9a bc f2 3e 48 3e 0f 35 22 be c4 42 e5 3f
       -0.018839998 0.19555262 -0.15840553 1.7911
000060 5f a7 b8 be 9f bd ec 3d 3b 0c 44 3f 6e d7 21 3d
       -0.36065194 0.11559605 0.7658116 0.03951209
000070 e1 34 db 3d 8b be 22 40 ea c0 c4 3f b2 0c 98 40
       0.10703445 2.5428798 1.5371373 4.7515497
000080 81 a2 e4 3d 1b 4b 16 3f 6c c3 ef bb
       0.11163808 0.5870835 -0.0073169973

encoder.4.bias f4 [5]
000000 7a 06 20 bf 88 c9 a4 bf 10 7e 5c bf a3 0c 0f be
       -0.6250988 -1.2874002 -0.86129856 -0.13969664
000010 41 21 cb bd
       -0.09918452

decoder.0.weight f4 [7, 5]
000000 47 ff a3 bf 66 db 03 40 a3 b9 7b bd 00 ef a0 bd
       -1.281228 2.060266 -0.061456334 -0.07858086
000010 46 6a 45 3f 8b 3d da 3f 4c 86 03 c0 97 8f c1 bd
       0.77115285 1.7050031 -2.0550718 -0.09451216
000020 ba 7a bc be 97 f7 45 3f ef b8 bb bf ce 05 4e bf
       -0.36812383 0.7733092 -1.4665812 -0.8047761
000030 3b b3 2a 3f 35 94 0e bf ce 69 15 3f 7b 90 e4 bd
       0.66679734 -0.55694896 0.5836457 -0.1116037
000040 34 29 3e bf e6 13 bf 3c e2 10 70 bf 27 06 8b bd
       -0.7428162 0.023324918 -0.9377576 -0.06788283
000050 37 92 f9 3f bf bb 1e 3f 8e 1e 3d 3f c6 df 3b 3f
       1.9497746 0.6200523 0.7387475 0.73388326
000060 62 2e ec 3c a7 42 82 3e 45 a1 1c c0 d4 a8 18 be
       0.02883071 0.25441477 -2.447343 -0.14908153
000070 18 0e 7e bf 11 ce 1e bf c3 fc c3 bf 2e 28 4f c0
       -0.99240255 -0.6203318 -1.5311512 -3.2368274
000080 20 f1 50 bf 41 ad 3f 3f cd 6a 07 3e
       -0.8161793 0.7487374 0.13224335

decoder.0.bias f4 [7]
000000 79 0d 93 3f 69 c4 d6 3e 2d f2 98 3e c4 1d d3 3f
       1.1488487 0.41946724 0.29872265 1.6493459
000010 8f 48 a9 3e 86 e6 0f 3f 1a cd d5 3e
       0.3306317 0.56211126 0.41758043

decoder.2.weight f4 [10, 7]
000000 15 2b 37 bf cc d4 3b 3f df f0 b8 3d 77 e9 7b bf
       -0.7155011 0.7337158 0.090303175 -0.98403114
000010 53 cf 8d bd 4c f0 ac 3e af fe 75 3f a8 04 49 3f
       -0.069243096 0.33777082 0.9609174 0.7852273
000020 c1 30 75 bf fb 13 7f bd 67 72 aa 3f ce 70 47 3f
       -0.9577752 -0.062274914 1.3316163 0.779065
000030 23 97 93 bf 51 82 36 3e f5 e4 44 bd 2c 8a 5c 3f
       -1.1530498 0.1782315 -0.048069913 0.86148334
000040 29 21 98 bf 6b 0a 98 3f 99 06 b7 3e e9 35 07 bb
       -1.188512 1.1878179 0.3574722 -0.0020631498
000050 11 b0 06 3e 6c e4 7e be bc e1 f8 3d 64 83 9f 3e
       0.13153102 -0.24891824 0.121524304 0.3115493
000060 2e 16 37 40 e3 ae b6 3d ae 49 d3 be 56 f1 1f 3d
       2.8607287 0.08920076 -0.4126715 0.039048515
000070 b8 b7 25 3d 5f 2c 6d bf 4c 2f 76 3e 64 4f 4e bf
       0.04045841 -0.9264583 0.2404148 -0.8058989
000080 1a 98 12 bd 62 fd 95 3f ef a2 c3 bd e4 3e 81 bf
       -0.035789587 1.1717951 -0.095525615 -1.0097318
000090 d7 a2 dc bf 38 67 2b bf 8d a9 e6 3e 34 9b 6d 3f
       -1.7237195 -0.66954374 0.45051232 0.92814946
0000a0 e2 92 57 be 70 34 00 3f 81 f4 10 3f 18 59 c5 be
       -0.21052125 0.50080013 0.56623083 -0.38544536
0000b0 af bb 12 3f b5 97 a6 3f 5e 4a ee be d6 2d 70 be
       0.5731763 1.3015047 -0.46541113 -0.23454985
0000c0 82 c3 aa 3e 17 53 f3 be 7b 43 94 be 6f 6b 15 bf
       0.33352286 -0.4752433 -0.28957734 -0.58367056
0000d0 1f ac e8 3f 7e ab a0 3e f3 d9 25 3e ac a1 a2 3f
       1.8177527 0.31380838 0.16196422 1.2705588
0000e0 64 ef bb 3e 90 23 7b 3f 94 2c 2a 3e 59 a8 71 be
       0.36706078 0.9810114 0.16618568 -0.23599376
0000f0 fa 2b dc bd 1d f8 58 3e 7f ed b5 be ff 6b 76 3f
       -0.10750575 0.21188398 -0.35532758 0.9625854
000100 a8 bd 09 c0 0e ef 2d c0 c9 d0 da 3d e5 0c a1 3d
       -2.1522007 -2.7177157 0.10684354 0.078637876
000110 05 b8 1f bf 2b 86 45 3f
       -0.62390167 0.7715785

decoder.2.bias f4 [10]
000000 59 c3 02 3e 47 1a e6 bf 79 82 87 3f ff f2 4f be
       0.12769832 -1.7976769 1.0586692 -0.2030754
000010 ee ed 3a 40 ec 58 87 3f 5b 25 f8 3d 27 ca 9c bd
       2.920772 1.0574012 0.121165 -0.07655745
000020 8a c0 00 3f cd 81 0f bf
       0.5029379 -0.56057435

decoder.4.weight f4 [13, 10]
000000 c2 1c 27 be 79 64 bd 3e 94 14 57 be a2 29 d6 bb
       -0.16319564 0.36990717 -0.21003944 -0.0065357247
000010 68 d1 a6 be 9c 7a c3 3f 97 85 97 3e dd 53 e8 be
       -0.3258164 1.5271792 0.29594108 -0.45376483
000020 27 f0 58 be f1 30 b1 bf 04 54 36 3f 45 bc 8b 40
       -0.21185361 -1.3843061 0.7122195 4.366732
000030 19 12 21 41 ce 01 4a 3f 50 f0 35 41 b9 c0 c6 40
       10.066918 0.78909004 11.37117 6.2110257
000040 a5 df 8b 3f 85 9f 37 40 c9 82 f1 bf ff dc 9a 40
       1.0927626 2.8691113 -1.8868037 4.839477
000050 5c 99 94 be ec a4 c9 3e d9 cd 1f be fc 9a ba bd
       -0.29023254 0.39383638 -0.15605868 -0.09111592
000060 5e 3f 86 bf 9c 0f 1f 40 8f cd 33 3e dd 53 36 bf
       -1.0488088 2.4853277 0.17558883 -0.71221715
000070 8b c7 1b be f6 39 3f be 2b 48 a2 3e ca 6e bd 3c
       -0.15212838 -0.18674454 0.31695685 0.023124117
000080 df 93 4d bd 73 08 69 3e ac 0e d2 be 8a 52 91 3f
       -0.05018985 0.2275713 -0.4102682 1.1353314
000090 86 11 50 3d 2e a3 28 bf 37 71 ef bc 2e 8d 25 40
       0.05079796 -0.6587399 -0.02922879 2.586742
0000a0 3b eb 18 bd c1 ca cb 3c af 0d 05 bd 2a ab da bc
       -0.03733371 0.024876954 -0.032483753 -0.026692946
0000b0 2f 98 08 bf a6 ca a3 3f 9b d2 5d 3d 60 3a 02 bf
       -0.53357214 1.2796218 0.054155927 -0.50870323
0000c0 3c 94 ac bd 6d f5 80 3e fe 97 da 3d 2e 48 48 3d
       -0.08426711 0.25187245 0.106735215 0.04889696
0000d0 b0 5d 8f be 2a 92 d0 3d d8 10 96 bf ff 4a 22 40
       -0.28001165 0.101841286 -1.172389 2.5358274
0000e0 02 c2 45 3d 20 79 6b bf e2 f2 e8 bd 1d d5 b8 3f
       0.048280723 -0.919817 -0.11374451 1.4440037
0000f0 1c 04 ba bf e8 37 ce 3f 8b 89 06 bf 92 79 fb 3c
       -1.4532504 1.6110811 -0.52553624 0.030697618
000100 56 c9 98 3f 74 6c 1a bf 66 46 5c 3e 9b a2 48 bf
       1.1936443 -0.60321736 0.2151123 -0.78373116
000110 0f ea 46 be 40 30 39 3f 82 a5 68 3e 1e 27 7d 3e
       -0.19425224 0.7233925 0.22719386 0.24721953
000120 01 96 4c bf f8 43 5e 3f fa 9b 80 3e c1 0b d5 be
       -0.7991639 0.8682246 0.25119 -0.4161053
000130 54 24 82 bf 48 27 92 3d c4 c5 8f 3e 68 9f 99 3d
       -1.0167336 0.071363986 0.2808057 0.075011075
000140 65 68 74 be 55 ef 27 3f a1 02 35 3e 29 79 0d 3f
       -0.23867948 0.65599567 0.17676784 0.55263
000150 f8 ce 74 3f 23 2c 17 bf 4a 9d cc bf 24 6a 64 3e
       0.9562831 -0.5905172 -1.5985501 0.22306114
000160 d0 c3 f6 bf b1 c0 b5 bf 14 1f dd 3e 97 9f 78 3e
       -1.9278507 -1.419943 0.43187773 0.24279629
000170 b5 68 bc bf 6e 59 fa 3d 22 f8 9e be 7f 68 09 3f
       -1.4719454 0.122240886 -0.31048685 0.53675073
000180 35 67 50 3f 69 78 f2 3e e4 ac bd be af 4b fe 3e
       0.8140748 0.4735749 -0.37045968 0.49667117
000190 55 1b 1a 3d 8f be 85 3e ff 37 39 bf e0 fa 09 bd
       0.037623722 0.26121947 -0.7235107 -0.03368652
0001a0 58 14 14 bf e2 be 69 3f df 80 e0 3e 9b b0 95 3d
       -0.5784354 0.9130689 0.4384832 0.073090754
0001b0 cc 3c 7c be 55 aa 66 bf df fb 4f 3f fe 65 56 40
       -0.24632567 -0.90103656 0.812437 3.349975
0001c0 06 77 03 3f 58 61 71 be 13 3b 76 bf ec af 72 3c
       0.5135349 -0.2357229 -0.9618389 0.014812451
0001d0 0b d5 0a be ff 24 34 3e 06 9e 5a 3e 1d 17 e5 3c
       -0.13557832 0.17592238 0.21349344 0.027965123
0001e0 77 f8 54 bf f5 8b 7f 3f 06 fc a5 3e 3f ca b1 3f
       -0.8319163 0.9982293 0.3241884 1.3889846
0001f0 bc e0 06 c0 3d b4 34 3e 5d 29 08 3f 9f 32 29 3f
       -2.1074667 0.1764688 0.53188115 0.66092867
000200 83 7f dd be 01 eb ad 3e
       -0.43261346 0.33968356

decoder.4.bias f4 [13]
000000 aa be 8e 3f 3a 59 0e 40 3d c2 0a 3f e9 b3 71 3e
       1.1151936 2.224196 0.54202634 0.23603787
000010 d0 0c 37 3e f1 75 d0 3e 48 67 8d bd d7 14 6c 3e
       0.17875981 0.40714982 -0.06904465 0.23054825
000020 d6 de 2c 3e 0c a7 a3 bf 78 74 c3 bd 59 89 b1 bf
       0.1688188 -1.2785354 -0.09543699 -1.387004
000030 b1 03 6f bf
       -0.9336501
