src/autoencoder_anomaly_detection_model.pth (torch, 6962 bytes, 12 tensors)

encoder.0.weight f4 [10, 13]
00000000: 2cb1 c63e d363 373f 73f8 3f3f 501c 9d3d
00000010: b0c0 cb3e 7f32 113f 7425 a03e 072f 0b3e
00000020: b2db 753f cfcf 03bd 45bc fe3e 743e e83e
00000030: 4ef4 82be 7d3c 66be 1acb fa3e 5bca 32be
00000040: 9a02 21bf 9b5d babe f192 5abf 7e7f 933f
00000050: 102e 203e d4c4 23be 1fea 8c3f edc5 083f
00000060: 8a0f aa3d 271f 4d3e b1a6 333e 8e32 11bf
00000070: 5aa5 903c b271 643e 5793 143e f3a3 c33e
00000080: 9465 07bf 8e34 253f e131 10be 7f68 373f
00000090: 6d63 073f c173 5a3e fde7 7a3e 2205 73be
000000a0: 4cb3 2d3e 39c0 18bf c0cc e5bb 572e 38be
000000b0: b00c 12bf 6ab6 803e a37e 193f d6a1 5cbe
000000c0: db65 18be 5515 abbe b98c 953e ec6d a83e
000000d0: c046 a2ba 1fba 273e 61c7 80bd dcbb 783d
000000e0: 5ad0 f3bd 2802 63be 398c 82be 082a 5abe
000000f0: 7f84 01be 4378 5cbd 1b85 ca3d 37cb ffbc
00000100: db93 17be ad7a 273e 5b70 d73e 5b93 9b3d
00000110: 4ce6 c13d e990 9b3c b17a c5bd 2df1 143f
00000120: 5386 1c3f e5d5 543e eed3 693e 0a69 4c3d
00000130: 85e8 1ebe ce6e 0e3f 9be8 ed3b d58e 89bd
00000140: 1822 07bd 763a 47bb 7e4e 1bbe f4f3 0cbd
00000150: 84c8 3eba d2ec 623d 31db 03be 48df d2bd
00000160: 273b 9ebe 13f9 db3c cded 603d 240b 1a3f
00000170: 0b60 483f 2411 863e 70ce cc3c 8099 4e3d
00000180: a52a f2bd 6b5e d73d b58f 84bf 9104 d63e
00000190: 0414 683f 3a97 aa3e 52c2 59bd 3cfd 5a3e
000001a0: 2c74 e63c 57cc 82bc 1eed 033e 1bdf 1ebd
000001b0: df6f c33d 656e 1c3e 68d8 0ebe 1dc0 85be
000001c0: 343e 193e cc9f 07bd 0379 153e f8eb 16be
000001d0: 8d61 913f f967 9cbe d906 2f3e 3479 3ebe
000001e0: 9346 113e 7ca3 54be 33ae 5dbe e7b6 9dbe
000001f0: 799e 2bbd 4108 453e 6aa2 88be 0c3a 5ebe
00000200: 3c8c d03d 4812 09be
0.38807046 0.71636695 0.7498848 0.07671416 0.39795446 0.56717676 0.31278574 0.13592158
0.96038353 -0.032180604 0.49753013 0.45360148 -0.25577015 -0.22484012 0.4898308 -0.17460005
-0.62894595 -0.3639954 -0.85380465 1.1523283 0.15642571 -0.15993053 1.1008948 0.5342701
0.08303745 0.20031415 0.17544056 -0.56717765 0.01765697 0.22308996 0.1450933 0.3821102
-0.5288937 0.6453332 -0.14081527 0.71643823 0.52886087 0.21333219 0.24502559 -0.23732427
0.16962928 -0.5966831 -0.0070129335 -0.17986427 -0.5705061 0.2513917 0.5995886 -0.2154611
-0.14882605 -0.33414713 0.29208925 0.32896364 -0.0012380704 0.16379593 -0.062880285 0.06072603
-0.11904974 -0.22168791 -0.25497606 -0.21305096 -0.126482 -0.053825628 0.09888669 -0.03122483
-0.14802496 0.16355391 0.42077908 0.07596465 0.09467754 0.018989997 -0.09642542 0.58180505
0.6114246 0.2078472 0.22834751 0.04990486 -0.15518387 0.55637825 0.0072603947 -0.06716696
-0.0329915 -0.0030399836 -0.15166661 -0.03441234 -0.0007277804 0.05540163 -0.12876584 -0.10296494
-0.30904505 0.026852166 0.054914284 0.6017325 0.7827155 0.26184952 0.02500078 0.050439358
-0.1182454 0.10516056 -1.0356356 0.4180036 0.9065554 0.33318502 -0.053163834 0.21385664
0.028131567 -0.015966577 0.12883422 -0.03878699 0.09542822 0.15276487 -0.1394974 -0.26123133
0.14965135 -0.03311138 0.14596944 -0.14738452 1.1357895 -0.30548075 0.17092456 -0.18600923
0.14187078 -0.2076549 -0.21648483 -0.30803606 -0.04189918 0.1924143 -0.26686412 -0.2170183
0.101829976 -0.1338588

encoder.0.bias f4 [10]
00000000: 19c7 193c c7d8 183f a60b ad3d c6c4 d73e
00000010: a792 45be 7324 d8be e4d4 873c a758 e13d
00000020: aaef ca3e 0b13 69be
0.0093858475 0.59705776 0.084494874 0.42142314 -0.19294225 -0.4221531 0.016581006 0.11003237
0.39635974 -0.2276117

encoder.2.weight f4 [7, 10]
00000000: 5483 9c3e 18c2 f0bd b31d 14bf 80b3 bf3e
00000010: a7cd 90bd 78d6 82be e965 8ebe cb73 a0bd
00000020: 3818 c13e 1d74 6bbd 9e39 1b3f ab67 893d
00000030: 9888 ccbf 54d0 f83d f8dd 4fbd 5a0d 083f
00000040: 02a0 1c3e aacb eb3e 43ed a6bd 94a7 a5be
00000050: 30ac 55be fc5e 83bd f066 8bbc 8495 94be
00000060: c0a9 893d bcb1 aa3d b720 5abe acc2 87be
00000070: c230 3e3e 70c5 bc3d 5608 0e3f f5fa 253f
00000080: 1eea 63be d295 143d 8aee bebd bce5 e9be
00000090: 9abb eabd 8356 2e3f 523a 07bf ff55 8abe
000000a0: 2428 98bc 9d2f 903b a2c4 903e c38d 95be
000000b0: 3c67 8e3d 7eb5 83bf 5326 98be 370b 083f
000000c0: 3d8d 973e f574 9ebe c8f5 cabe d9a5 3a3f
000000d0: 9f29 f0be f315 ad3e 42c3 e6bd 7a55 15bf
000000e0: 5226 4cbe e34e 0b3e d5ac 1c3f dd1f 863d
000000f0: b300 7d3e 2c29 a8bd b1c2 10bd 5f99 46be
00000100: 60ca 8c3c d9d9 183f f387 75be d5c4 ef3e
00000110: 4ffa 5e3f ea4c 74be
0.30568945 -0.117557704 -0.5785782 0.37441635 -0.07070475 -0.25554252 -0.27812126 -0.07834586
0.3771379 -0.05748378 0.6063479 0.06709226 -1.5979185 0.121491104 -0.050748795 0.5314537
0.15295413 0.4605382 -0.08150723 -0.32354414 -0.20866466 -0.06414601 -0.017016858 -0.2902032
0.0672183 0.083346814 -0.21301542 -0.2651571 0.18573287 0.09217346 0.5548147 0.64836055
-0.22257277 0.036275692 -0.093228415 -0.45683086 -0.114615634 0.68100756 -0.52823365 -0.27018735
-0.018573828 0.004400207 0.2827502 -0.29209718 0.06953284 -1.0289762 -0.2971674 0.5314211
0.29599944 -0.30948606 -0.3964064 0.72909313 -0.46906754 0.33805808 -0.11267711 -0.5833355
-0.19936493 0.13604312 0.6120122 0.06549046 0.24707298 -0.08210978 -0.035341922 -0.19394444
0.017186344 0.5970741 -0.23977642 0.46829858 0.8710069 -0.23857465

encoder.2.bias f4 [7]
00000000: 1786 113f 1289 e4bd 29bd 97be dd2d 253e
00000010: db4f 5b3f 2ec6 723f 222a ecbe
0.5684523 -0.111589566 -0.29636505 0.16130777 0.85668725 0.9483365 -0.46125895

encoder.4.weight f4 [5, 7]
00000000: 81e1 2a3f 0f45 363e 63d5 72be 5799 b0be
00000010: 732d 77be 236c 853f bd62 923e 4773 5f3f
00000020: 34e9 ea3e f85e 703d 0867 183f 863e d23d
00000030: 175c c23e 5767 76bf 968a 70bd dbd1 023e
00000040: 7cf0 d03d d904 33be 7414 dc3f 9eb4 0a3f
00000050: 0f4b 64be 8e91 f43e 130b 9d3f 38b5 e2bd
00000060: d986 913e 5f75 943e c2cf 07be 4a37 d13e
00000070: cfb2 213f 9a4a 913c e0f0 80bc 7764 b9be
00000080: 1271 b83e cee4 20be e908 1abd
0.6675034 0.17799781 -0.23714213 -0.3449199 -0.24138431 1.0423626 0.28590956 0.87285274
0.45881045 0.05868432 0.59532213 0.10265832 0.37960884 -0.96251434 -0.058725916 0.12775366
0.10202119 -0.17482318 1.7193742 0.5418185 -0.22294258 0.477673 1.2269005 -0.11069721
0.28423193 0.28995797 -0.13262847 0.40862495 0.63163465 0.017735768 -0.015739858 -0.3620946
0.36023766 -0.15712282 -0.037606154

encoder.4.bias f4 [5]
00000000: 1138 9f3e 75d8 1e3f 298e 363f c57b 91be
00000010: 629a 653f
0.31097463 0.6204904 0.7131067 -0.2841474 0.89688694

decoder.0.weight f4 [7, 5]
00000000: 4f6d 943f 11b6 d83e 9d0f 0fbe d6e7 c4be
00000010: e587 c83f adec 853e fcf8 923e 2ca1 dcbe
00000020: 6742 3a3f ec1b 9bbf 2a65 00be c270 d2bd
00000030: 8313 6c3e b2bb 4a3f 9a58 843f f943 b3bc
00000040: f1e8 3f3f ad2f 693f d0ac 16bf e37c 13bd
00000050: 3f1a 0c3f 2455 a5be 32f1 2c3f 5b04 703e
00000060: fe82 cfbf ad09 cd3d 6755 343e 65ee 8fbd
00000070: cb93 7cbe 88a1 153e 6fb0 eebd 2430 383f
00000080: 460f 3bbe 5b6d 003f db48 79bb
1.1595858 0.42326406 -0.139708 -0.38458127 1.5666472 0.26157132 0.28705585 -0.43091714
0.7275757 -1.2117896 -0.12538591 -0.10275413 0.23054318 0.7919265 1.0339539 -0.021882998
0.74964815 0.9108837 -0.5885744 -0.036007773 0.5472755 -0.3229152 0.67555535 0.23439161
-1.6211851 0.10011611 0.17610703 -0.07027892 -0.24665754 0.146124 -0.11654746 0.71948457
-0.18267545 0.50166863 -0.003803781

decoder.0.bias f4 [7]
00000000: 687a c0be 1bcc 0c3f c109 2fbf 9347 103f
00000010: 85ff a63e fd67 14bf c692 043e
-0.3759339 0.5499894 -0.6837426 0.56359214 0.3261682 -0.57971174 0.12946615

decoder.2.weight f4 [10, 7]
00000000: 0f81 4a3f de97 ef3d 3e46 60be a19c 653e
00000010: e399 2dbf 5126 a63d 20f7 833e 9293 d23e
00000020: 3521 60bf 1dba d6be 2a39 733f 3ea6 7e3c
00000030: ac8d 31be ea3d d9be 8fd4 563e 28f7 e3be
00000040: 6e79 b33e 1e76 ed3e 272e 123f 83f7 89be
00000050: bf51 e4be 4f80 d23e ed85 693e 76a5 663f
00000060: 22ef 0abf 54f3 f63d daed 23be aa7e 923e
00000070: 3f62 313c 45a1 20bf da54 1b3f f6b3 c33e
00000080: f6ef 96be b12a a0bc c346 473f c7ff e13e
00000090: 1a99 583f 07c0 3dbf 2377 8c3e 32f0 3b3f
000000a0: 4042 1ebe 7c00 a83e 72ee 213e 5b71 5ebe
000000b0: a661 3f3e ffa7 79be b020 5fbd 3db7 bd3e
000000c0: fe2c b3be 48db f3bd 147b 803d 40c7 ddbb
000000d0: 9769 25be b9fa 71be a50e 8b3e 40c8 a9be
000000e0: 6ebe 95be 69d8 fe3c 1e31 62be 63f5 1abd
000000f0: 8724 dcbe c422 cabe 070a 043f f78e f4be
00000100: 0f67 123f 9035 383e d151 c93e 0573 c2bb
00000110: 8115 193c b0b5 fe3e
0.7910318 0.11698888 -0.21901795 0.2242303 -0.6781294 0.08112777 0.2577448 0.41128212
-0.8755067 -0.41938868 0.950091 0.015542565 -0.173392 -0.4243005 0.20979522 -0.44524503
0.3505358 0.4637918 0.5710167 -0.2694665 -0.44593617 0.41113517 0.22804995 0.90096223
-0.5427114 0.1205813 -0.16008702 0.28612262 0.010826646 -0.6274608 0.6067635 0.38223237
-0.2947995 -0.019551607 0.7784235 0.44140455 0.84608614 -0.74121135 0.27434644 0.73413384
-0.1545496 0.3281287 0.15813616 -0.21722929 0.18689594 -0.24380492 -0.054474533 0.37053862
-0.34995264 -0.11907059 0.06273475 -0.006768137 -0.1615356 -0.236308 0.2715961 -0.3316059
-0.2924685 0.031109052 -0.22089049 -0.037831675 -0.42996618 -0.3947965 0.515778 -0.47765324
0.57188505 0.17989182 0.39320233 -0.0059341216 0.009343506 0.49747992

decoder.2.bias f4 [10]
00000000: f711 903e 90a7 a0be 3900 8e3f 4b70 40bb
00000010: a4af 53bf 0e36 e3be 88c1 9cbe 6322 7dbe
00000020: c6e1 f73f 4721 dfbe
0.28138706 -0.3137784 1.1093818 -0.0029363807 -0.8268988 -0.44377178 -0.30616403 -0.24720149
1.9365776 -0.43580076

decoder.4.weight f4 [13, 10]
00000000: fa56 83be 34c7 28bd a7bc 133e e388 503e
00000010: 89aa 90be 8249 81be 98d5 b8bd 8020 fd3b
00000020: a3a1 623e 93af 6b3e 2e68 57bf e7f6 2fc0
00000030: 57ef 77bf 5ca2 7e40 27a7 a6bd 6ed1 2640
00000040: 620c 313e 20ee 803c c30b e63f 66f9 3240
00000050: da1b c3be 7993 643d 5145 87be c442 893e
00000060: 6358 c83d 4f4d d6be 623a 69be 4897 303e
00000070: 2d95 78be bc56 3f3e 099f a5bd 01c2 463d
00000080: 312b 76bd 538f 613d 9e37 0fbd 181b 59be
00000090: 001f 60bc b24f 81be 486e f53d 4d28 d7bd
000000a0: 2ab2 8abe 82ca 003d 636e 66be c98c 063e
000000b0: e889 553e a123 1bbe 00ad e4ba 5afb a9bd
000000c0: adac febc 797d 3ebe 81a1 ecbe c1e2 9c3e
000000d0: 16b3 97be 1bf6 713e b338 0a3e c245 e2be
000000e0: 81cf 813e e038 c8bc 6279 e43d d9da 5cbe
000000f0: 55ed 47bd 3560 9ebe b951 6dbf f07d f93d
00000100: ed26 81be ef90 0b3f 4120 6ebe 110e 8f3e
00000110: 1940 bebe 396d 223e e8ea 6f3e f5fc adbd
00000120: c7f3 16be ecc5 d1bd b0a9 6dbf 85ff e5bd
00000130: f871 333e f6fe 793e 8ac7 a43f f8db d7be
00000140: f7e5 29be c5c2 7bc0 9e26 4ebe dc42 a33e
00000150: eebf 6e3d d663 7cbe 2614 f3bd b898 393e
00000160: ece2 b2bd d8f9 ce3d 495c 3cbf c726 9cbd
00000170: 0c9f ba3e 13fb c3be fd86 b9be 2481 513e
00000180: d0ad 3a3e 2ae7 633e 469f 513e 424d 5f3e
00000190: 244c f4be 95a8 083e 521a 203d e9f9 95bd
000001a0: c9a3 b8bd ab0f 303d ec2c 1abe 3dfc 903e
000001b0: 7437 ec3d 75fd 813d 53cf 3d3e eb81 4d3d
000001c0: 3269 bbbc 02aa 8fbe c58b 723e a017 2dbc
000001d0: f02a b0bd 4fbe 2fbe 8ab2 0e3f d607 9c3e
000001e0: e279 8fbe 297d 6e3c b356 823e de5d 503f
000001f0: f7ac 33bf 24f4 ff3d 603b 40be 1ca6 b23d
00000200: a53b 55bf baa5 40bf
-0.25652295 -0.0412056 0.14427434 0.20364718 -0.28255108 -0.25251395 -0.09025115 0.0077248216
0.22131972 0.23016195 -0.8414334 -2.7494447 -0.9684958 3.9786596 -0.081373505 2.6065326
0.1728988 0.015738547 1.7972339 2.796472 -0.38107187 0.055804703 -0.26420072 0.2680875
0.097824834 -0.41855857 -0.22776178 0.17245209 -0.24275656 0.1868543 -0.08086974 0.04852486
-0.060099784 0.055068325 -0.03496515 -0.21201742 -0.013679266 -0.25256115 0.11983925 -0.10505734
-0.27089053 0.031443126 -0.22503047 0.13139643 0.20853388 -0.1515031 -0.0017446578 -0.08299895
-0.031088198 -0.18602552 -0.46216968 0.3064175 -0.2962882 0.23629038 0.13498192 -0.44193846
0.25353625 -0.024441183 0.111559644 -0.21567859 -0.04881032 -0.30932775 -0.92702824 0.12182224
-0.2522501 0.54518026 -0.23254491 0.2794042 -0.37158278 0.15861978 0.23429453 -0.08495513
-0.14741431 -0.10242829 -0.9283705 -0.11230377 0.17523944 0.24413666 1.2873394 -0.4216001
-0.16591631 -3.9337628 -0.20131919 0.31886947 0.058288507 -0.2464746 -0.118690774 0.18124664
-0.08734688 0.10106248 -0.73578316 -0.07624584 0.36449468 -0.38277492 -0.362358 0.2045942
0.18230367 0.22256151 0.20470914 0.21806815 -0.4771434 0.13345559 0.0390876 -0.07323057
-0.090156145 0.042983692 -0.15056199 0.28317443 0.11534014 0.06347171 0.18536119 0.050172728
-0.02287731 -0.28059393 0.2368613 -0.010564715 -0.0860194 -0.1716244 0.5574118 0.30474728
-0.28022677 0.014556208 0.2545677 0.8139323 -0.701858 0.12497738 -0.1877265 0.08723089
-0.83294135 -0.7525288

decoder.4.bias f4 [13]
00000000: da42 033f 3e3a 413f ce7e 803d d9ab 3a3f
00000010: 6f58 133e 5146 f33e 296f 31bf 4b83 e93f
00000020: 03dc 31bf 32af d03e b130 933b a43b e03e
00000030: caab 563f
0.5127388 0.75479496 0.06274186 0.7291847 0.14389203 0.47514585 -0.6931024 1.8243192
-0.69476336 0.40758663 0.0044918885 0.43795502 0.8385588
